device = cuda
positives = 5920
negatives = 5920
sequence[0:2000]
split = 70/15/15
model = Sequential(
  (0): Conv1d(4, 8, kernel_size=(15,), stride=(1,))
  (1): BatchNorm1d(8, eps=1e-05, momentum=0.1, affine=True, bias=True, track_running_stats=True)
  (2): ReLU()
  (3): MaxPool1d(kernel_size=2, stride=2, padding=0, dilation=1, ceil_mode=False)
  (4): Conv1d(8, 16, kernel_size=(15,), stride=(1,))
  (5): BatchNorm1d(16, eps=1e-05, momentum=0.1, affine=True, bias=True, track_running_stats=True)
  (6): ReLU()
  (7): MaxPool1d(kernel_size=2, stride=2, padding=0, dilation=1, ceil_mode=False)
  (8): Conv1d(16, 32, kernel_size=(15,), stride=(1,))
  (9): BatchNorm1d(32, eps=1e-05, momentum=0.1, affine=True, bias=True, track_running_stats=True)
  (10): ReLU()
  (11): MaxPool1d(kernel_size=2, stride=2, padding=0, dilation=1, ceil_mode=False)
  (12): Conv1d(32, 64, kernel_size=(15,), stride=(1,))
  (13): BatchNorm1d(64, eps=1e-05, momentum=0.1, affine=True, bias=True, track_running_stats=True)
  (14): ReLU()
  (15): Dropout(p=0.3, inplace=False)
  (16): AdaptiveMaxPool1d(output_size=1)
  (17): Flatten(start_dim=1, end_dim=-1)
  (18): Linear(in_features=64, out_features=128, bias=True)
  (19): ReLU()
  (20): Linear(in_features=128, out_features=2, bias=True)
)
parameters = 49738
lr = 0.001
batch_size = 32
epochs = 15
loss = CrossEntropyLoss
optimizer = Adam
Run 1: seed = 919046
Run 2: seed = 889609
Run 3: seed = 882158
Run 4: seed = 850543
Run 5: seed = 787232
Run 6: seed = 297561
Run 7: seed = 356561
Run 8: seed = 870945
Run 9: seed = 866690
Run 10: seed = 932380
